…
--keras_hdf5   :  ./build/keras_model/k_model.h5
--tboard       :  ./build/tb_logs
-----------------------------------------
softmax/Softmax:0

-----------------------------------------
 Model Summary
-----------------------------------------
Model: "model"
_________________________________________________________________
Layer (type)                 Output Shape              Param #   
=================================================================
input_1 (InputLayer)         [(None, 35, 35, 1)]       0         
_________________________________________________________________
conv2d (Conv2D)              (None, 32, 32, 64)        1088      
_________________________________________________________________
max_pooling2d (MaxPooling2D) (None, 16, 16, 64)        0         
_________________________________________________________________
conv2d_1 (Conv2D)            (None, 13, 13, 64)        65600     
_________________________________________________________________
max_pooling2d_1 (MaxPooling2 (None, 6, 6, 64)          0         
_________________________________________________________________
conv2d_2 (Conv2D)            (None, 3, 3, 64)          65600     
_________________________________________________________________
flatten (Flatten)            (None, 576)               0         
_________________________________________________________________
dropout (Dropout)            (None, 576)               0         
_________________________________________________________________
dense (Dense)                (None, 25)                14425     
_________________________________________________________________
softmax (Softmax)            (None, 25)                0         
=================================================================
Total params: 146,713
Trainable params: 146,713
Non-trainable params: 0
_________________________________________________________________
None
Train on 2000 samples, validate on 500 samples
Epoch 1/10
  32/2000 [..............................] - ETA: 5:21 - loss: 3.2202 - acc: 0.0000e+00
…
